Connected!
Client Ver:1 (Min Req: 1), Server Ver:1 (Min Req: 1)

Model: "sequential_1"
_________________________________________________________________
Layer (type)                 Output Shape              Param #   
=================================================================
conv2d_1 (Conv2D)            (None, 32, 7, 25)         544       
_________________________________________________________________
conv2d_2 (Conv2D)            (None, 15, 3, 64)         14464     
_________________________________________________________________
conv2d_3 (Conv2D)            (None, 15, 3, 64)         4160      
_________________________________________________________________
flatten_1 (Flatten)          (None, 2880)              0         
_________________________________________________________________
dense_1 (Dense)              (None, 512)               1475072   
_________________________________________________________________
activation_1 (Activation)    (None, 512)               0         
_________________________________________________________________
dense_2 (Dense)              (None, 3)                 1539      
_________________________________________________________________
activation_2 (Activation)    (None, 3)                 0         
=================================================================
Total params: 1,495,779
Trainable params: 1,495,779
Non-trainable params: 0
_________________________________________________________________
None
Training for 251000 steps ...

agent_name:  Drone0
[K1/1==>reward/depth: -0.5/-0.5   	 -2  0agent_name:  Drone0
[K1/2==>reward/depth: 1.3/0.8   	 -2  0agent_name:  Drone0
…
